'NoneType' object has no attribute 'cadam32bit_grad_fp32'
SiglipModel(
  (text_model): SiglipTextTransformer(
    (embeddings): SiglipTextEmbeddings(
      (token_embedding): Embedding(32000, 1152)
      (position_embedding): Embedding(64, 1152)
    )
    (encoder): SiglipEncoder(
      (layers): ModuleList(
        (0-26): 27 x SiglipEncoderLayer(
          (self_attn): SiglipAttention(
            (k_proj): Linear(in_features=1152, out_features=1152, bias=True)
            (v_proj): Linear(in_features=1152, out_features=1152, bias=True)
            (q_proj): Linear(in_features=1152, out_features=1152, bias=True)
            (out_proj): Linear(in_features=1152, out_features=1152, bias=True)
          )
          (layer_norm1): LayerNorm((1152,), eps=1e-06, elementwise_affine=True)
          (mlp): SiglipMLP(
            (activation_fn): PytorchGELUTanh()
            (fc1): Linear(in_features=1152, out_features=4304, bias=True)
            (fc2): Linear(in_features=4304, out_features=1152, bias=True)
          )
          (layer_norm2): LayerNorm((1152,), eps=1e-06, elementwise_affine=True)
        )
      )
    )
    (final_layer_norm): LayerNorm((1152,), eps=1e-06, elementwise_affine=True)
    (head): Linear(in_features=1152, out_features=1152, bias=True)
  )
  (vision_model): SiglipVisionTransformer(
    (embeddings): SiglipVisionEmbeddings(
      (patch_embedding): Conv2d(3, 1152, kernel_size=(14, 14), stride=(14, 14), padding=valid)
      (position_embedding): Embedding(729, 1152)
    )
    (encoder): SiglipEncoder(
      (layers): ModuleList(
        (0-26): 27 x SiglipEncoderLayer(
          (self_attn): SiglipAttention(
            (k_proj): Linear(in_features=1152, out_features=1152, bias=True)
            (v_proj): Linear(in_features=1152, out_features=1152, bias=True)
            (q_proj): Linear(in_features=1152, out_features=1152, bias=True)
            (out_proj): Linear(in_features=1152, out_features=1152, bias=True)
          )
          (layer_norm1): LayerNorm((1152,), eps=1e-06, elementwise_affine=True)
          (mlp): SiglipMLP(
            (activation_fn): PytorchGELUTanh()
            (fc1): Linear(in_features=1152, out_features=4304, bias=True)
            (fc2): Linear(in_features=4304, out_features=1152, bias=True)
          )
          (layer_norm2): LayerNorm((1152,), eps=1e-06, elementwise_affine=True)
        )
      )
    )
    (post_layernorm): LayerNorm((1152,), eps=1e-06, elementwise_affine=True)
    (head): SiglipMultiheadAttentionPoolingHead(
      (attention): MultiheadAttention(
        (out_proj): NonDynamicallyQuantizableLinear(in_features=1152, out_features=1152, bias=True)
      )
      (layernorm): LayerNorm((1152,), eps=1e-06, elementwise_affine=True)
      (mlp): SiglipMLP(
        (activation_fn): PytorchGELUTanh()
        (fc1): Linear(in_features=1152, out_features=4304, bias=True)
        (fc2): Linear(in_features=4304, out_features=1152, bias=True)
      )
    )
  )
)
